Processing Model 1300 of 1323
_________________________________________________________________
Layer (type)                 Output Shape              Param #   
=================================================================
conv2d_557 (Conv2D)          (None, 48, 48, 32)        896       
_________________________________________________________________
max_pooling2d_557 (MaxPoolin (None, 24, 24, 32)        0         
_________________________________________________________________
conv2d_558 (Conv2D)          (None, 22, 22, 64)        18496     
_________________________________________________________________
max_pooling2d_558 (MaxPoolin (None, 11, 11, 64)        0         
_________________________________________________________________
conv2d_559 (Conv2D)          (None, 9, 9, 128)         73856     
_________________________________________________________________
max_pooling2d_559 (MaxPoolin (None, 4, 4, 128)         0         
_________________________________________________________________
conv2d_560 (Conv2D)          (None, 2, 2, 128)         147584    
_________________________________________________________________
max_pooling2d_560 (MaxPoolin (None, 1, 1, 128)         0         
_________________________________________________________________
flatten_140 (Flatten)        (None, 128)               0         
_________________________________________________________________
dropout_140 (Dropout)        (None, 128)               0         
_________________________________________________________________
dense_279 (Dense)            (None, 512)               66048     
_________________________________________________________________
dense_280 (Dense)            (None, 1)                 513       
=================================================================
Total params: 307,393
Trainable params: 307,393
Non-trainable params: 0
_________________________________________________________________
Model: <function model_7 at 0x00000157A872F950>
Batch Size: 100
Learning Rate: 0.0001
Epochs: 90
Steps per Epoch: 130
Validation Steps: 10
Image Size: (50, 50)
_________________________________________________________________ 
…
