Processing Model 1001 of 1225
_________________________________________________________________
Layer (type)                 Output Shape              Param #   
=================================================================
conv2d_133 (Conv2D)          (None, 48, 48, 32)        896       
_________________________________________________________________
max_pooling2d_133 (MaxPoolin (None, 24, 24, 32)        0         
_________________________________________________________________
conv2d_134 (Conv2D)          (None, 22, 22, 64)        18496     
_________________________________________________________________
max_pooling2d_134 (MaxPoolin (None, 11, 11, 64)        0         
_________________________________________________________________
conv2d_135 (Conv2D)          (None, 9, 9, 128)         73856     
_________________________________________________________________
max_pooling2d_135 (MaxPoolin (None, 4, 4, 128)         0         
_________________________________________________________________
conv2d_136 (Conv2D)          (None, 2, 2, 128)         147584    
_________________________________________________________________
max_pooling2d_136 (MaxPoolin (None, 1, 1, 128)         0         
_________________________________________________________________
flatten_34 (Flatten)         (None, 128)               0         
_________________________________________________________________
dropout_34 (Dropout)         (None, 128)               0         
_________________________________________________________________
dense_67 (Dense)             (None, 512)               66048     
_________________________________________________________________
dense_68 (Dense)             (None, 1)                 513       
=================================================================
Total params: 307,393
Trainable params: 307,393
Non-trainable params: 0
_________________________________________________________________
Model: <function model_7 at 0x0000015406FC19D8>
Batch Size: 180
Learning Rate: 0.0001
Epochs: 80
Steps per Epoch: 170
Validation Steps: 100
Image Size: (50, 50)
_________________________________________________________________ 
…
