Processing Model 1226 of 1299
_________________________________________________________________
Layer (type)                 Output Shape              Param #   
=================================================================
conv2d_261 (Conv2D)          (None, 48, 48, 32)        896       
_________________________________________________________________
max_pooling2d_261 (MaxPoolin (None, 24, 24, 32)        0         
_________________________________________________________________
conv2d_262 (Conv2D)          (None, 22, 22, 64)        18496     
_________________________________________________________________
max_pooling2d_262 (MaxPoolin (None, 11, 11, 64)        0         
_________________________________________________________________
conv2d_263 (Conv2D)          (None, 9, 9, 128)         73856     
_________________________________________________________________
max_pooling2d_263 (MaxPoolin (None, 4, 4, 128)         0         
_________________________________________________________________
conv2d_264 (Conv2D)          (None, 2, 2, 128)         147584    
_________________________________________________________________
max_pooling2d_264 (MaxPoolin (None, 1, 1, 128)         0         
_________________________________________________________________
flatten_66 (Flatten)         (None, 128)               0         
_________________________________________________________________
dropout_66 (Dropout)         (None, 128)               0         
_________________________________________________________________
dense_131 (Dense)            (None, 512)               66048     
_________________________________________________________________
dense_132 (Dense)            (None, 1)                 513       
=================================================================
Total params: 307,393
Trainable params: 307,393
Non-trainable params: 0
_________________________________________________________________
Model: <function model_7 at 0x00000157A872F950>
Batch Size: 200
Learning Rate: 0.001
Epochs: 90
Steps per Epoch: 190
Validation Steps: 40
Image Size: (50, 50)
_________________________________________________________________ 
…
